handWritingEx/mlp_hid_W_best_model.npy (npy, 364080 bytes, 1 tensors)

array f8 [91, 500]
-0.05626788176250123 0.015961358537762364 -0.0040062641947981184 0.049204599356991244 0.05264876025052658 -0.04562428991193331 -0.039405970151578776 0.05827498719725138
0.09862974201699333 0.07466631643583603 -0.02852353891467419 0.003256462151727742 0.0343841184840928 0.056659607346246726 -0.03445042090540418 0.00789136809398912
0.01739009623973027 -0.09487300893313415 0.04451771374153703 0.07218663459950411 -0.019852961324769255 0.023868468862952626 -0.08018576728197063 -0.027411492416050932
0.08663773344508445 0.033440980970311625 -0.014211625780034076 0.0518703283142687 -0.029180973995796212 0.0064575109353670395 0.08140497474059898 -0.017368551934298163
0.055351906460825724 -0.06212050545988195 0.022698899400712506 0.04249531435443042 -0.06186296307267305 0.08086037218033826 -0.017773788224175732 0.08482676749379026
-0.09696941625009949 -0.06635854449053982 -0.086398620141611 0.03722022528732796 0.022464884614423895 0.005046413044443688 -0.09771285286513606 0.012002770458953002
-0.039583672966837166 -0.0068184221638563376 -0.09791316295993546 0.02206037413680527 0.02042135582650274 -0.10878455366375728 0.03242883183015404 0.07188545136400501
0.06090864449609898 0.10046035314443004 0.09436024761808057 0.04685913495676639 -0.04847358946406495 0.041223230726743075 -0.00024862553837308145 -0.0685381954282767
-0.026397383288105477 -0.0834453158613718 -0.005396282219817365 0.09937036185329358 -0.08267078922780047 -0.066775203350615 0.04809232105682149 0.009769420047189075
-0.011729720540455886 -0.08729284321823377 -0.06323607290420288 0.07546305222105154 -0.007741212154599529 0.0011055847560496386 -0.10200109291439416 -0.03213328933177298
-0.004667895059444067 0.01874259781440931 0.09292176203526299 0.026039000624253607 0.051680635440737456 -0.07532069502572494 0.0468126714278714 0.0636364877918602
0.030664785009360276 -0.013941204092033565 -0.06964932825219133 0.008578709340498961 0.02139602033319012 0.09413314493040757 -0.010174942945991645 -0.0007127154644660574
-0.004284416764540989 0.05755193936513659 -0.08662971515242086 0.034097956820543465 0.04388788779183027 0.05237785578046795 0.07005293302943466 0.012606919840050761
0.0961152228891151 -0.06864944019045822 -0.09230057507187638 0.01712645113179989 -0.07715761025553652 0.09292376277929942 -0.03339216814617031 -0.08721792063301942
0.0008995798919869847 0.08405093886910948 0.08955878040887418 -0.046417238385742625 -0.021298891769570324 -0.0673944451430941 0.08100910070486772 0.038888663027004194
0.04700481579243653 0.09025465294813004 0.05945949740002343 0.03196423222839408 -0.043550328225395625 -0.06594188007707304 -0.03228881519235219 0.03352781457322131
-0.09146999228740835 -0.08843513935802497 -0.03700210171479652 0.028607115504420254 0.06921264593505845 -0.03832211986488803 -0.06514178773316094 -0.06160922500668744
0.10539943111749843 -0.0643377670726337 -0.029453695869979035 -2.113065593754237e-05 -0.09353882712987983 0.0795804414625114 0.09326331493412261 0.007914771626143867
-0.0946982024777688 -0.037389836133635314 0.044617945468063386 -0.062240043582637954 0.00721994369252453 -0.062354906995806175 0.0849561653066529 0.041081141737919206
-0.06460204785876988 -0.09333021549550675 0.04283563143849599 0.04589799095451944 0.05703906703338294 0.08267777061091024 0.028511358843660975 0.0039135116582809
-0.06990088364678008 0.028109694379763538 0.09280265184697611 0.07824943179624802 0.10129949083843609 0.06462395021861013 0.025044896295495583 -0.01097763810376992
0.06453623606833321 0.08992679857418835 0.016388988900970625 -0.021657660995024277 -0.039669768107239524 0.07964060281530067 -0.05248722654971347 0.055202393475664406
-0.020545930753008878 0.057184304793677525 0.07247360314296457 0.05534420967573463 0.0173978418658897 0.008119255478789363 0.07910776092619148 0.03622334957274957
-0.012385460647045777 -0.09134482677295673 -0.033219112060293716 0.05292396837821511 -0.0033830167135518036 -0.043730039415733814 0.021777013775715767 -0.07747878938664284
-0.06848338884900664 0.03622915529119917 -0.0639727230862338 -0.03588378502341726 0.015648531792642677 -0.0876375403366886 0.05531943210869557 0.09925557141331054
0.09905109254096557 0.08090555408953289 0.013904285261655557 0.08387207518602585 0.043195019002830806 0.04046140935878029 -0.08692549901279373 -0.02438519764431643
-0.053248713416121335 -0.04104199054836269 -0.07098962906451775 0.061875378082105525 0.0019314148236049943 0.05041302510281704 0.0338055651372241 -0.02857860709326699
-0.016169703819560812 -0.026824954765287783 -0.005308004021539581 0.1033557763132593 -0.024914418386174465 -0.09266512388236506 0.09057509642210329 0.06785070375971405
-0.03145612093766339 0.026156251035880127 -0.041393686559235095 -0.05194912254655681 -0.048854236119910494 -0.020415538781094457 -0.09134914668446084 0.0298650504986056
0.03947701608316189 0.0901305022861699 -0.017695296902679746 -0.031457901891828316 -0.026597064500509048 0.055320646667459436 0.07032495609980584 0.009777359263368578
-0.09750539661049774 -0.09033948632451749 -0.06767024305558154 0.02197798370328511 -0.08490637693933555 -0.034925254388088064 -0.10275727100719423 0.02817150773282058
-0.08999902616690526 0.06581281371199699 -0.03960492123821631 0.043150576508934446 0.014671194548966716 -0.10033642873994303 0.01675842819128534 0.026025848143367517
00000000: f563 f8cf 24cf acbf 5e7c ada3 2c58 903f
00000010: 91f8 215b df68 70bf 8a24 1a62 5831 a93f
00000020: c3e3 e63e c7f4 aa3f 4b63 2622 115c a7bf
00000030: e2e8 22f2 042d a4bf 38c0 5f18 38d6 ad3f
00000040: 353b 607c cc3f b93f 6b67 34eb 541d b33f
00000050: a205 384b 4635 9dbf 5d96 27ce 4bad 6a3f
00000060: ea2c c890 cb9a a13f 6cd7 1cf1 7c02 ad3f
00000070: e089 3e4e 7ca3 a1bf 6936 137f 5929 803f
00000080: 94e8 7e9a b5ce 913f cb13 a4f6 9849 b8bf
00000090: 92a5 3999 06cb a63f 0e2c d0c2 d27a b23f
000000a0: ec7b 79ae 5554 94bf 6f1a b0d4 f970 983f
000000b0: c4aa 14f0 0d87 b4bf 0a91 d81d c211 9cbf
000000c0: 2b07 bff7 e32d b63f e92f 3a1f 2d1f a13f
000000d0: 33fd 951f fc1a 8dbf ba31 7c67 bf8e aa3f
000000e0: fdd3 e803 9ee1 9dbf e7d3 7ee4 3073 7a3f
000000f0: a319 3ed8 f4d6 b43f 9491 25ca 0fc9 91bf
00000100: a97e 0ac8 1557 ac3f e7ec b846 42ce afbf
00000110: 4e34 535a 613e 973f 9e62 c522 f2c1 a53f
00000120: a329 7696 80ac afbf b093 0eee 43b3 b43f
00000130: fc6f 98bc 4a33 92bf d812 3600 35b7 b53f
00000140: a9a2 81d7 fcd2 b8bf baa3 65a2 dffc b0bf
00000150: c580 ed4f 381e b6bf 04b8 b784 870e a33f
00000160: 29d2 e8e2 0801 973f 34d2 ce2f 8cab 743f
00000170: ee61 74a3 b503 b9bf 2b29 a994 e894 883f
00000180: 6e3d b2a9 4f44 a4bf 22ee 4343 a2ed 7bbf
00000190: 80c6 c248 d610 b9bf 7c06 d2a5 fe96 963f
000001a0: 83c3 a8fd 55e9 943f 30b9 4bf4 4dd9 bbbf
000001b0: c7e4 5008 839a a03f 4ea6 aabe 1567 b23f
000001c0: 2c12 4ff8 6a2f af3f b9c8 4c0b c5b7 b93f
000001d0: f6e6 8f41 fe27 b83f 9dfa 50a8 ebfd a73f
000001e0: 2a8f efc2 87d1 a8bf 0318 9d17 361b a53f
000001f0: c73c 678e 3e4b 30bf 932c e41b b88b b1bf
00000200: ff86 b067 ea07 9bbf f604 a116 ac5c b5bf
00000210: 8533 777a 691a 76bf 4501 5a06 5670 b93f
00000220: b062 11b0 e929 b5bf ad1b 9302 2e18 b1bf
00000230: 716c 4184 8e9f a83f 4919 d45c fd01 843f
00000240: 975a e670 c005 88bf 4c13 cce2 d258 b6bf
00000250: da0f 0d41 3d30 b0bf 8083 58ed 8b51 b33f
00000260: 6502 91d0 3fb5 7fbf 9d2e b197 281d 523f
00000270: 8e3c 395e be1c babf 24f3 9545 c673 a0bf
00000280: e18c f189 a41e 73bf 36b0 9e72 4231 933f
00000290: c534 0779 b8c9 b73f 2a22 68c0 f7a9 9a3f
000002a0: f5e2 1b5e e275 aa3f 5af4 d891 3748 b3bf
000002b0: 6367 a499 d4f7 a73f cbf9 e519 7b4a b03f
000002c0: d42b 04e3 9666 9f3f 331d 23bd 348d 8cbf
000002d0: 6412 08d3 89d4 b1bf 7583 79e0 b691 813f
000002e0: a5e5 619e d6e8 953f 471b f21a 1c19 b83f
000002f0: 049a 88b9 99d6 84bf 35f4 3cce b05a 47bf
00000300: b49e 2d5e 898c 71bf d10d caa2 7277 ad3f
00000310: 6d02 7171 5d2d b6bf da2e cf92 4975 a13f
00000320: 9e4a 8325 7978 a63f a132 3933 45d1 aa3f
00000330: 44ad 5930 fdee b13f 299b 5423 a8d1 893f
00000340: 2fdd f4da 019b b83f cdb8 817c 0293 b1bf
00000350: 8ff0 55af 02a1 b7bf 40ce 07ae 9889 913f
00000360: 045f afe4 99c0 b3bf d489 280a dac9 b73f
00000370: 32bb 423c c718 a1bf fc72 bee4 e953 b6bf
00000380: 9a34 ad1b 397a 4d3f 5d13 a4c1 5c84 b53f
00000390: 9dfe ec00 53ed b63f bfbf ac11 00c4 a7bf
000003a0: 5c8a 5d6e 60cf 95bf ff57 d229 c340 b1bf
000003b0: d4ad 342e 03bd b43f 1cb5 c5ff 36e9 a33f
000003c0: 7f81 2ae5 0311 a83f 3e5b b9ce ed1a b73f
000003d0: d015 8aa9 7971 ae3f 721a 20a8 9d5d a03f
000003e0: 5191 ea86 3a4c a6bf 0127 5e2a 91e1 b0bf
000003f0: 0434 8eda 2888 a0bf 5259 32c6 8e2a a13f
00000400: 2696 70d1 936a b7bf b223 5c6f afa3 b6bf
00000410: 5a23 7f81 f0f1 a2bf f3f6 1806 2f4b 9d3f
00000420: 75bd c282 ebb7 b13f a7f0 10f7 f49e a3bf
00000430: f9b9 ead7 21ad b0bf d33d 128d 3e8b afbf
00000440: 43aa aa05 75fb ba3f 2e81 799d 7078 b0bf
00000450: 6014 0812 1c29 9ebf f468 7e9e 3728 f6be
00000460: 01d5 6d1b 29f2 b7bf 1f94 7b41 625f b43f
00000470: bd00 8fc7 1ae0 b73f 0c18 51aa 9e35 803f
00000480: f6ca a132 243e b8bf 7d24 cbb6 c224 a3bf
00000490: ec38 33d1 29d8 a63f 77ca 604f eddd afbf
000004a0: 7019 9de0 a892 7d3f 548f 957c fbec afbf
000004b0: c4ec 95ef afbf b53f ef4f 7e60 9608 a53f
000004c0: f0db ce82 c289 b0bf 4526 482f 7de4 b7bf
000004d0: ce81 4348 8dee a53f 851a 3404 f17f a73f
000004e0: 0566 017f 3934 ad3f eb4a e1d0 5e2a b53f
000004f0: 8432 31e7 1432 9d3f f477 5b49 9d07 703f
00000500: b373 3939 06e5 b1bf 661e 3fa8 c9c8 9c3f
00000510: b832 aa22 eac1 b73f fad6 7e9e 2708 b43f
00000520: 1ca6 4070 c3ee b93f e12d baf8 318b b03f
00000530: a85d 158a 5ea5 993f 2fe5 24a5 717b 86bf
00000540: 7d07 525f 7285 b03f 85fd e852 7105 b73f
00000550: a06f 606d 46c8 903f f7d6 b906 6d2d 96bf
00000560: bd2c 5289 984f a4bf 5c83 8698 5363 b43f
00000570: 0c3f fa12 9bdf aabf 371e 47f5 7c43 ac3f
00000580: b3a7 9912 fe09 95bf dfde dddd 4247 ad3f
00000590: 4783 524b a18d b23f 2316 2985 1356 ac3f
000005a0: eb03 5767 bdd0 913f d180 fe05 d4a0 803f
000005b0: e4ab 09fe 6740 b43f 4677 88eb dd8b a23f
000005c0: a74f 6663 8c5d 89bf e70c a6e3 5f62 b7bf
000005d0: b15f cd6f 1802 a1bf 2fcb b7b2 d918 ab3f
000005e0: 2058 b044 b3b6 6bbf 7d67 49a2 c863 a6bf
000005f0: ec8c e2a7 b64c 963f 1d9f 8c62 a6d5 b3bf
00000600: f1fc 6c9b 2088 b1bf 0d5a 46ba a08c a23f
00000610: e7ce 7d31 8460 b0bf 1fb9 4306 5c5f a2bf
00000620: 3b88 1e31 2b06 903f 99e0 a5f1 696f b6bf
00000630: 9af3 7a1f d452 ac3f 707c 2a29 d068 b93f
00000640: 51b5 1893 695b b93f fd19 e1f4 39b6 b43f
00000650: 86d6 c893 d979 8c3f 04bd f8eb a378 b53f
00000660: 4a3c ef53 a81d a63f 005e e49b 5bb7 a43f
00000670: 44cc 72df bf40 b6bf d82a 8ee9 6ef8 98bf
00000680: 4c46 5a55 6a43 abbf b4fe 55ae 7403 a5bf
00000690: 3ef1 2f57 602c b2bf 609f 942a 21ae af3f
000006a0: 3835 27e0 f0a4 5f3f 49d2 376c bccf a93f
000006b0: 70d5 5f89 f64e a13f 42c1 52db b543 9dbf
000006c0: 5734 5d74 ca8e 90bf 1eff bb3d 0078 9bbf
000006d0: c06e df7a d8bd 75bf 6f3e 1e2f 8675 ba3f
000006e0: fd7f ab50 2a83 99bf c2f6 8dcc e6b8 b7bf
000006f0: f208 f7f4 ed2f b73f 2297 a8e9 a95e b13f
00000700: c360 5f45 041b a0bf b9e9 234b b4c8 9a3f
00000710: c9c9 10a4 8d31 a5bf 2f66 c94c 1399 aabf
00000720: 64e9 cf24 6c03 a9bf 3a80 949d cfe7 94bf
00000730: eafa 865d a862 b7bf 4e56 bd9c f194 9e3f
00000740: 5fac 0ada 5436 a43f 66ef b0e7 ca12 b73f
00000750: b3c7 f545 b71e 92bf f400 a707 401b a0bf
00000760: 6612 ccc8 423c 9bbf 26eb 75e0 fc52 ac3f
00000770: c192 8afa d000 b23f 1923 38f2 2606 843f
00000780: 2127 a019 1df6 b8bf 301e 4d13 7d20 b7bf
00000790: 3f0a d648 d652 b1bf 6a55 f384 6581 963f
000007a0: a721 2da0 6cbc b5bf a679 cd12 b9e1 a1bf
000007b0: 90f0 66ee 4c4e babf f4de 90e1 fdd8 9c3f
000007c0: 6107 0f1a 2d0a b7bf 18ff 8cca 1bd9 b03f
000007d0: 9a24 f5a2 1847 a4bf 689f d115 d517 a63f
000007e0: 479f 3f66 ee0b 8e3f dc15 09f0 a5af b9bf
000007f0: f844 0e14 1f29 913f c475 811a 85a6 9a3f
