handWritingEx/mlp_lg_W_best_model.npy (npy, 8080 bytes, 1 tensors)

array f8 [500, 2]
000000 c3 83 03 8d ae fd af bf c5 83 03 8d ae fd af 3f
       -0.062482313836660384 0.0624823138366604
000010 0f 99 ed 70 b0 ba b8 3f 0f 99 ed 70 b0 ba b8 bf
       0.09659865147623158 -0.09659865147623158
000020 4e ce 61 df e1 b0 b8 bf 4e ce 61 df e1 b0 b8 3f
       -0.09644900993026193 0.09644900993026193
000030 29 a5 c8 f2 d6 69 b6 3f 29 a5 c8 f2 d6 69 b6 bf
       0.0875524847730459 -0.0875524847730459
000040 1a 30 fa 29 de 2d a4 3f 1b 30 fa 29 de 2d a4 bf
       0.039412443756276797 -0.0394124437562768
000050 d1 c5 f2 60 57 39 68 3f d4 c5 f2 60 57 39 68 bf
       0.002957029973537508 -0.002957029973537509
000060 4b 6e f6 95 b6 bd ae bf 47 6e f6 95 b6 bd ae 3f
       -0.06004114704702753 0.0600411470470275
000070 f8 75 98 5f 77 61 97 3f fa 75 98 5f 77 61 97 bf
       0.022832741937341056 -0.022832741937341063
000080 b1 b8 fa 1a e1 1a b5 bf b1 b8 fa 1a e1 1a b5 3f
       -0.08244139584232603 0.08244139584232603
000090 29 3f c1 5a ba 94 77 3f 2d 3f c1 5a ba 94 77 bf
       0.005757072398480814 -0.005757072398480817
0000a0 a0 44 b6 42 b7 16 66 3f 9f 44 b6 42 b7 16 66 bf
       0.0026963786419363506 -0.00269637864193635
0000b0 c8 e2 ac 37 7d a2 a1 bf c7 e2 ac 37 7d a2 a1 3f
       -0.03444281868582305 0.034442818685823044
0000c0 6d 79 46 a1 2c 26 96 3f 6b 79 46 a1 2c 26 96 bf
       0.02162999853464369 -0.021629998534643684
0000d0 75 f3 de cd 48 e0 c4 bf 75 f3 de cd 48 e0 c4 3f
       -0.16309461643495707 0.16309461643495707
0000e0 65 b8 06 dd 84 c1 b8 3f 65 b8 06 dd 84 c1 b8 bf
       0.09670286556385717 -0.09670286556385717
0000f0 6b 3e ea cb e1 c6 a8 3f 6b 3e ea cb e1 c6 a8 bf
       0.04839234937855682 -0.04839234937855682
000100 84 df f1 51 90 89 c8 bf 85 df f1 51 90 89 c8 3f
       -0.1916981124993492 0.19169811249934923
000110 00 0c 0e 0a db 5c 98 bf 01 0c 0e 0a db 5c 98 3f
       -0.02379171608800945 0.023791716088009455
000120 1b 32 b6 94 8d b0 bc 3f 1c 32 b6 94 8d b0 bc bf
       0.11206898575455464 -0.11206898575455465
000130 52 5f 04 bb 5d 53 a7 3f 53 5f 04 bb 5d 53 a7 bf
       0.0455579081337293 -0.04555790813372931
000140 a4 0a 17 ca 25 1f b4 bf a5 0a 17 ca 25 1f b4 3f
       -0.07860027488554039 0.0786002748855404
000150 fe c8 95 f1 aa 93 82 bf 00 c9 95 f1 aa 93 82 3f
       -0.009070716378776652 0.009070716378776655
000160 89 d2 ae 06 bc f4 aa bf 86 d2 ae 06 bc f4 aa 3f
       -0.05264842588022584 0.05264842588022582
000170 b0 75 4c 40 46 4a 8d 3f ae 75 4c 40 46 4a 8d bf
       0.014301823460807522 -0.014301823460807519
000180 2a 86 8d ee 3e 64 6c bf 2c 86 8d ee 3e 64 6c 3f
       -0.0034657696855198332 0.003465769685519834
000190 83 69 1e 27 86 90 a2 bf 83 69 1e 27 86 90 a2 3f
       -0.03625888087772735 0.03625888087772735
0001a0 33 23 b6 af d6 a4 b2 bf 34 23 b6 af d6 a4 b2 3f
       -0.07282773771124766 0.07282773771124768
0001b0 32 35 9d c2 62 c8 b0 3f 33 35 9d c2 62 c8 b0 bf
       0.06555764437981251 -0.06555764437981253
0001c0 f0 16 2f 0b 59 68 b5 bf f0 16 2f 0b 59 68 b5 3f
       -0.08362347147984983 0.08362347147984983
0001d0 4e cd 69 1d 7a c5 b4 3f 4f cd 69 1d 7a c5 b4 bf
       0.0811382600602901 -0.08113826006029011
0001e0 84 49 e3 db bc 90 b6 bf 82 49 e3 db bc 90 b6 3f
       -0.08814602249484521 0.08814602249484518
0001f0 08 f8 99 b7 83 ee ab 3f 07 f8 99 b7 83 ee ab bf
       0.05455409637669112 -0.05455409637669111
000200 56 6a ef a0 b0 25 ad 3f 55 6a ef a0 b0 25 ad bf
       0.056928176541721484 -0.05692817654172148
000210 a9 1f bf 36 59 fe b9 bf aa 1f bf 36 59 fe b9 3f
       -0.10153729998194073 0.10153729998194075
000220 b6 a4 cc 95 f4 63 ca 3f b5 a4 cc 95 f4 63 ca bf
       0.20617539705680138 -0.20617539705680135
000230 09 1b 58 3d c5 7a 93 bf 08 1b 58 3d c5 7a 93 3f
       -0.01902301966586165 0.019023019665861646
000240 56 bc e4 76 7f 23 b1 3f 5a bc e4 76 7f 23 b1 bf
       0.06694790508912382 -0.06694790508912388
000250 c8 5c d8 bb bd 62 a5 3f ca 5c d8 bb bd 62 a5 bf
       0.041768960171049196 -0.04176896017104921
000260 cf b3 d9 15 1a 18 b3 3f d0 b3 d9 15 1a 18 b3 bf
       0.07458651574570684 -0.07458651574570685
000270 80 cc 0b 6b cc cc a3 bf 80 cc 0b 6b cc cc a3 3f
       -0.03867186361994701 0.03867186361994701
000280 66 20 f7 6b d4 95 bb 3f 66 20 f7 6b d4 95 bb bf
       0.10775497089264405 -0.10775497089264405
000290 28 b2 bd a9 40 c1 a4 3f 2a b2 bd a9 40 c1 a4 bf
       0.04053690025361717 -0.040536900253617184
0002a0 c6 3d 7a 29 fe c6 a5 bf c8 3d 7a 29 fe c6 a5 3f
       -0.04253381973569108 0.04253381973569109
0002b0 76 02 91 91 15 84 9a bf 7d 02 91 91 15 84 9a 3f
       -0.025894486436529772 0.025894486436529796
0002c0 a6 d3 f7 d8 75 25 a5 bf a7 d3 f7 d8 75 25 a5 3f
       -0.041301424727783684 0.04130142472778369
0002d0 8d 91 cf ab 64 21 92 3f 8d 91 cf ab 64 21 92 bf
       0.017705510126590652 -0.017705510126590652
0002e0 53 13 1b 67 28 86 b3 3f 54 13 1b 67 28 86 b3 bf
       0.07626583592634732 -0.07626583592634734
0002f0 48 e8 d2 dd 44 50 62 3f 48 e8 d2 dd 44 50 62 bf
       0.002235540871507378 -0.002235540871507378
000300 0b ef bf 40 32 49 af 3f 0e ef bf 40 32 49 af bf
       0.0611053184547626 -0.06110531845476262
000310 89 c8 b5 80 fd b5 b5 3f 89 c8 b5 80 fd b5 b5 bf
       0.08480820076309405 -0.08480820076309405
000320 e8 e3 19 bf 05 5e ce 3f e7 e3 19 bf 05 5e ce bf
       0.23724433737859774 -0.2372443373785977
000330 2f 0a 3a da dd cb 80 bf 32 0a 3a da dd cb 80 3f
       -0.008201344702006256 0.008201344702006261
000340 de ed f5 34 af 4f b5 bf e0 ed f5 34 af 4f b5 3f
       -0.08324713747963794 0.08324713747963797
000350 de 33 27 14 69 6e be 3f e2 33 27 14 69 6e be bf
       0.11887222997684385 -0.11887222997684391
000360 e4 e7 80 5c 74 c5 b9 bf e4 e7 80 5c 74 c5 b9 3f
       -0.10066916712176482 0.10066916712176482
000370 74 73 0f 87 b6 8e be 3f 74 73 0f 87 b6 8e be bf
       0.1193651275384136 -0.1193651275384136
000380 99 7c aa 16 cf f8 a0 bf 9b 7c aa 16 cf f8 a0 3f
       -0.03314826156314971 0.03314826156314973
000390 50 73 fd e0 cc 73 9f bf 53 73 fd e0 cc 73 9f 3f
       -0.030715180618574422 0.030715180618574433
0003a0 04 42 fa c9 ca da a0 bf 07 42 fa c9 ca da a0 3f
       -0.03291925159021861 0.03291925159021863
0003b0 9d ae 1b 16 7d be c0 3f 9d ae 1b 16 7d be c0 bf
       0.13081325129984558 -0.13081325129984558
0003c0 f3 56 67 85 2e fe b0 3f f0 56 67 85 2e fe b0 bf
       0.06637850529599713 -0.06637850529599709
0003d0 4b 83 8f 6c 28 ed c7 bf 4b 83 8f 6c 28 ed c7 3f
       -0.18692498493967444 0.18692498493967444
0003e0 a9 7d ad 02 e1 eb a7 bf a8 7d ad 02 e1 eb a7 3f
       -0.046721488549106134 0.04672148854910613
0003f0 a2 29 b9 ce 30 09 b6 3f a2 29 b9 ce 30 09 b6 bf
       0.08607773825602874 -0.08607773825602874
000400 82 9e 1a 0f 80 3a a2 3f 82 9e 1a 0f 80 3a a2 bf
       0.03560257133841295 -0.03560257133841295
000410 55 e1 f7 6f c8 3c b0 bf 55 e1 f7 6f c8 3c b0 3f
       -0.06342747434235226 0.06342747434235226
000420 f0 db 4c cc 00 34 a9 bf f1 db 4c cc 00 34 a9 3f
       -0.04922487729930214 0.049224877299302146
000430 5d b0 c3 29 ed 76 a2 bf 5d b0 c3 29 ed 76 a2 3f
       -0.036063586567110596 0.036063586567110596
000440 f8 d8 c6 3c 04 7c b6 3f f8 d8 c6 3c 04 7c b6 bf
       0.0878298424130185 -0.0878298424130185
000450 92 32 46 5b 2b bb bb bf 8f 32 46 5b 2b bb bb 3f
       -0.1083247278058457 0.10832472780584566
000460 69 38 3a dc 2d 9a 84 bf 68 38 3a dc 2d 9a 84 3f
       -0.010059698375041575 0.010059698375041573
000470 49 2c 14 10 e9 fd b5 3f 49 2c 14 10 e9 fd b5 bf
       0.08590561525868269 -0.08590561525868269
000480 e2 a3 4c 21 f0 a5 b1 3f e1 a3 4c 21 f0 a5 b1 bf
       0.06893826306317366 -0.06893826306317365
000490 3d d5 45 99 95 55 ba 3f 3d d5 45 99 95 55 ba bf
       0.10286841384898522 -0.10286841384898522
0004a0 d4 68 be 9c 9e 20 bb 3f d2 68 be 9c 9e 20 bb bf
       0.10596648527863134 -0.10596648527863131
0004b0 fc 99 95 fc d7 50 a9 3f ff 99 95 fc d7 50 a9 bf
       0.04944491346650534 -0.04944491346650536
0004c0 fe 12 6c a4 cb 80 b9 bf fb 12 6c a4 cb 80 b9 3f
       -0.09962151302540787 0.09962151302540782
0004d0 de ad dc 90 c1 ea b1 3f de ad dc 90 c1 ea b1 bf
       0.06998834406538587 -0.06998834406538587
0004e0 26 1a 93 18 ad bb a4 3f 25 1a 93 18 ad bb a4 bf
       0.040494355439978855 -0.04049435543997885
0004f0 62 e2 27 11 13 96 b6 bf 64 e2 27 11 13 96 b6 3f
       -0.08822745484202124 0.08822745484202127
000500 84 17 5a 3a 5b 77 b7 bf 85 17 5a 3a 5b 77 b7 3f
       -0.09166498350722746 0.09166498350722747
000510 44 3f d4 88 c3 95 a4 3f 44 3f d4 88 c3 95 a4 bf
       0.04020510716702444 -0.04020510716702444
000520 3b 68 81 7f 03 63 bc bf 3a 68 81 7f 03 63 bc 3f
       -0.11088582861830869 0.11088582861830867
000530 73 a9 4f 14 e1 6e 7b bf 68 a9 4f 14 e1 6e 7b 3f
       -0.006697539535688401 0.006697539535688392
000540 58 16 59 37 64 f4 be bf 57 16 59 37 64 f4 be 3f
       -0.12091661788243735 0.12091661788243734
000550 66 0c e5 40 4b 19 b0 3f 65 0c e5 40 4b 19 b0 bf
       0.06288595518440018 -0.06288595518440017
000560 d7 d0 c2 fc 4d 72 9a 3f db d0 c2 fc 4d 72 9a bf
       0.025826662590319707 -0.02582666259031972
000570 38 9a 47 bb 15 d4 9e 3f 3a 9a 47 bb 15 d4 9e bf
       0.030105914645810666 -0.030105914645810673
000580 10 8a 05 49 5d fc a6 bf 0f 8a 05 49 5d fc a6 3f
       -0.044894137538694534 0.04489413753869453
000590 44 c5 1c 9e 42 b9 94 3f 48 c5 1c 9e 42 b9 94 bf
       0.020237961674131513 -0.020237961674131527
0005a0 80 b3 c3 54 fd eb 6a 3f 90 b3 c3 54 fd eb 6a bf
       0.0032863567231430912 -0.003286356723143098
0005b0 cd 12 3f 10 4e e0 ae 3f c9 12 3f 10 4e e0 ae bf
       0.06030506084747387 -0.06030506084747384
0005c0 dd d0 eb 3e 96 34 c7 bf dd d0 eb 3e 96 34 c7 3f
       -0.181292324755879 0.181292324755879
0005d0 b2 4c 05 81 5a 00 a9 bf b3 4c 05 81 5a 00 a9 3f
       -0.04883082222900138 0.04883082222900139
0005e0 66 c0 d5 ea e6 5b b2 3f 65 c0 d5 ea e6 5b b2 bf
       0.07171481354976236 -0.07171481354976235
0005f0 99 8a a4 cc 8f 9c 89 3f 9c 8a a4 cc 8f 9c 89 bf
       0.012505649025631714 -0.01250564902563172
000600 80 5f d7 64 37 12 c1 3f 80 5f d7 64 37 12 c1 bf
       0.1333684198750653 -0.1333684198750653
000610 48 d5 6e 0d 70 81 b1 3f 49 d5 6e 0d 70 81 b1 bf
       0.06838131263687786 -0.06838131263687787
000620 4a 3a f3 74 0f 09 92 bf 48 3a f3 74 0f 09 92 3f
       -0.017612687600200773 0.017612687600200766
000630 d4 50 28 be 80 75 69 bf d5 50 28 be 80 75 69 3f
       -0.003107787562166656 0.0031077875621666564
000640 58 97 94 f4 1c ef bb 3f 56 97 94 f4 1c ef bb bf
       0.10911732646181116 -0.10911732646181113
000650 ea c6 db 92 c4 fb bf bf ec c6 db 92 c4 fb bf 3f
       -0.12493542275822347 0.1249354227582235
000660 1d 45 a7 25 8b fb bf bf 1c 45 a7 25 8b fb bf 3f
       -0.12493199986717625 0.12493199986717624
000670 ef 2c 68 5b 57 82 89 bf ef 2c 68 5b 57 82 89 3f
       -0.012455637433069515 0.012455637433069515
000680 cf d7 f2 4f 2a 9b a3 bf d2 d7 f2 4f 2a 9b a3 3f
       -0.03829319215712667 0.03829319215712669
000690 50 af 6d bc 10 f8 93 bf 51 af 6d bc 10 f8 93 3f
       -0.019500981808433793 0.019500981808433796
0006a0 ab 2f 25 dd 23 a3 91 bf ab 2f 25 dd 23 a3 91 3f
       -0.017223892567286885 0.017223892567286885
0006b0 06 d2 c0 c6 99 22 95 3f 07 d2 c0 c6 99 22 95 bf
       0.020639803653653054 -0.020639803653653057
0006c0 ee 51 cf 7f 94 40 5a 3f dc 51 cf 7f 94 40 5a bf
       0.0016023111522730465 -0.0016023111522730426
0006d0 73 fa 2c 0d 53 5f a2 bf 74 fa 2c 0d 53 5f a2 3f
       -0.03588351760707988 0.03588351760707989
0006e0 f5 8f 90 b6 45 a4 90 bf f9 8f 90 b6 45 a4 90 3f
       -0.01625164915834883 0.016251649158348844
0006f0 ea 89 88 94 a4 84 d3 3f eb 89 88 94 a4 84 d3 bf
       0.3049708796044387 -0.30497087960443875
000700 6a 60 d8 d8 75 3f bb bf 6b 60 d8 d8 75 3f bb 3f
       -0.10643707794258864 0.10643707794258865
000710 44 90 3d a8 13 b2 58 bf 3a 90 3d a8 13 b2 58 3f
       -0.001507300564264306 0.0015073005642643037
000720 92 4f f8 4f e9 a1 c4 bf 92 4f f8 4f e9 a1 c4 3f
       -0.16119114308150678 0.16119114308150678
000730 b6 21 81 c1 bb aa a2 bf ba 21 81 c1 bb aa a2 3f
       -0.0364588426314784 0.03645884263147843
000740 b6 f0 9b e1 4a 8c ba bf b6 f0 9b e1 4a 8c ba 3f
       -0.10370319374118506 0.10370319374118506
000750 10 a8 cc 73 cf 28 a6 3f 10 a8 cc 73 cf 28 a6 bf
       0.04328010834281326 -0.04328010834281326
000760 b6 a9 0f 85 6b 9d 81 bf af a9 0f 85 6b 9d 81 3f
       -0.008601036070065553 0.008601036070065541
000770 f2 ef 6f bb fb 37 9b 3f f5 ef 6f bb fb 37 9b bf
       0.026580746951353214 -0.026580746951353224
000780 df 4a ae f7 ee 1b 97 bf de 4a ae f7 ee 1b 97 3f
       -0.022567495219457775 0.02256749521945777
000790 ed c5 3f f7 3e ea bd bf eb c5 3f f7 3e ea bd 3f
       -0.1168555596957714 0.11685555969577137
0007a0 e3 9d da fa 3b ab a7 bf e1 9d da fa 3b ab a7 3f
       -0.046228289005110466 0.04622828900511045
0007b0 6c 63 3b e2 17 d3 c1 bf 6e 63 3b e2 17 d3 c1 3f
       -0.1392545561455124 0.13925455614551246
0007c0 78 af c9 58 15 39 96 3f 7a af c9 58 15 39 96 bf
       0.021702130836657813 -0.02170213083665782
0007d0 76 bb 60 f2 50 66 a5 bf 75 bb 60 f2 50 66 a5 3f
       -0.04179623564447514 0.041796235644475134
0007e0 13 55 c6 62 20 09 7e bf 0f 55 c6 62 20 09 7e 3f
       -0.007332922465498787 0.007332922465498783
0007f0 7d fd b7 f9 5b 47 99 bf 7b fd b7 f9 5b 47 99 3f
       -0.024686276547070108 0.0246862765470701
