handWritingEx/mlp_hid_b_best_model.npy (npy, 4080 bytes, 1 tensors)

array f8 [500]
000000 80 ee a8 02 65 68 83 bf dd 82 16 10 d8 5a 8d 3f
       -0.009476460593865754 0.014333427420582573
000010 b5 2d 6f 4f fa 69 8d bf 21 7c 6c 93 46 a4 8a 3f
       -0.014362292813436687 0.013008643507019415
000020 67 96 e3 b8 ba 97 78 3f 74 20 d4 92 89 d1 4c 3f
       0.006004075416262112 0.0008794709916921787
000030 e9 e0 36 a5 32 7b 82 bf 69 00 cc c1 49 4c 67 3f
       -0.009024043719236778 0.002843994194677225
000040 5f cb 61 9c 6b f4 89 bf 3c 05 d0 91 79 d6 51 3f
       -0.01267322607984561 0.0010887324526723382
000050 a2 5e 43 b4 80 79 32 3f 1e 46 80 31 ac 15 7a bf
       0.0002819003314136014 -0.00636832488091124
000060 b3 01 13 1b b8 ee 70 3f a3 ce e3 f8 eb 59 9a bf
       0.004133910334701718 -0.02573364931681844
000070 a0 fd 12 9e 0f 05 8e 3f 53 3b 32 f1 83 f7 81 3f
       0.014658090602437224 0.008772879408096712
000080 6d fd f9 22 5b 5a 9e bf bb 27 2f d9 73 0f 6b bf
       -0.029641555795476494 -0.003303266779288242
000090 bb b9 91 5f ca b9 92 3f 67 b9 84 ad d8 8b 7f 3f
       0.018286859591563714 0.00770172729271077
0000a0 0b fc 56 1e 32 70 8a bf fb c4 44 6e f9 f6 62 bf
       -0.012909308958908758 -0.0023150321668700103
0000b0 4a a2 57 4d 81 a9 80 bf 49 84 d9 a6 54 cd 59 3f
       -0.008135805294800087 0.0015748335530576688
0000c0 1d 39 b8 4c 3a 0d 37 bf dd 01 67 cd 6b 1a 7a bf
       -0.00035174058277300126 -0.006372853377286406
0000d0 80 d3 81 ca 7c 98 85 bf 4b ba 6a f1 35 02 85 3f
       -0.010544753007914798 0.010258122854193938
0000e0 0a 68 19 15 5a 04 8a bf c4 4e bc 94 91 70 89 3f
       -0.012703613060853786 0.012421738959836566
0000f0 c7 9f c1 90 df b1 8c bf ae 39 e5 3f 47 3a 80 3f
       -0.014011141400445027 0.007923657071526726
000100 31 42 59 77 7b 79 80 3f 7b fe 7e 2e 4f 4e 8f bf
       0.008044209079487082 -0.015286081892440287
000110 cd 62 92 b8 1c db a0 3f 13 01 fb 80 82 6a 66 bf
       0.03292169335435844 -0.0027363346960954742
000120 a2 f3 5c 40 c3 a6 83 3f 78 65 36 8c 38 90 7f 3f
       0.009595418359475808 0.007705899133179421
000130 ba 46 55 60 0d 89 86 3f 6f fd 13 d5 16 6d 76 bf
       0.011003593923905586 -0.00547512930756909
000140 ff 8d 43 2b f0 b4 90 3f 39 27 94 1e 1f 25 78 3f
       0.016315224304788597 0.005894776878685276
000150 ce 6e 0e 59 49 4f 7e bf 72 6f 62 13 78 55 74 bf
       -0.007399832263128748 -0.004964322133812137
000160 5f 15 6b 78 2b fd 79 bf 71 35 3d 31 51 71 67 3f
       -0.006344957166850434 0.0028616510188956214
000170 e5 de 8d ed b2 13 89 3f 1f 8d 28 48 10 71 54 3f
       0.012244603991106337 0.0012476595881104125
000180 e4 79 ac 7b 3a e8 83 3f fa 9f 80 bf 2e a9 8a 3f
       0.009720284365866534 0.013018002719107347
000190 5f 40 18 1e 8b 3d a3 3f 89 32 1b 39 c4 fd 5c bf
       0.03757891409270608 -0.0017694870224886103
0001a0 4f e3 d5 41 e4 6f 8a bf ad 0f 80 9c e6 0c 93 3f
       -0.012908728846683508 0.01860390024377494
0001b0 0a 64 e2 9d da cc 90 bf 71 01 5a 7b 36 5a 92 3f
       -0.016406455885405825 0.01792225959661792
0001c0 1b 2f 6a a7 3e f5 74 bf 99 9c ef 75 d7 bb 71 bf
       -0.005116696111723741 -0.0043295303757765686
0001d0 10 65 64 d4 b5 83 77 bf dd 3a 1a 00 6e b5 95 3f
       -0.005740843078706051 0.021199911838773445
0001e0 e9 97 5d 4b c5 fe 84 3f 3b 7e 8a 22 25 b2 9d bf
       0.01025156151053959 -0.028999881966795576
0001f0 17 55 67 41 10 9d 7f bf 8e 76 1f 52 c3 31 8d 3f
       -0.007718146799068812 0.014255071586315251
000200 86 42 d2 ed 3c b3 77 3f ac 94 73 5c 18 4c 85 bf
       0.005786169055810425 -0.010399046250720488
000210 aa 45 df fe 87 7b 7f bf c1 e6 4e 9b e2 2d 76 bf
       -0.00768616793898628 -0.005414853269877618
000220 7f 01 21 dc 1c 38 8e 3f bf d8 3e d6 67 f7 90 bf
       0.014755464046289244 -0.016568777514941454
000230 aa 64 5c 63 62 d0 31 bf b1 2c 05 61 6c a4 8b 3f
       -0.00027182008794708146 0.013497206412145553
000240 f5 7f 53 54 dd e2 84 3f 5a 83 0e 92 0c 30 90 3f
       0.010198334823542135 0.015808292784302715
000250 8d 7d be 8c 62 9f 90 3f 21 b1 ad 04 db 4d 80 3f
       0.01623300537141641 0.007960997658039095
000260 dc 6b a8 44 3d 0d 91 bf 23 21 1a 65 34 5f 85 3f
       -0.016652066531701468 0.010435494742765677
000270 3a 2e d0 78 b9 f5 75 3f 28 d7 70 87 9c 44 8c bf
       0.00536129426928827 -0.013802740939449956
000280 77 01 db 91 6a 05 8b bf f4 4c 92 8e 9e 64 7c 3f
       -0.01319392449966082 0.006931895602195971
000290 10 20 e2 3f 19 19 93 bf ee dc 60 30 40 cc 67 bf
       -0.018650431179168037 -0.002905011529061966
0002a0 92 3f 34 48 5b a2 93 bf a8 9d 32 04 69 0c 85 3f
       -0.01917402866553137 0.010277576866726104
0002b0 90 09 70 51 57 26 76 3f f8 e3 36 98 9d e9 6f 3f
       0.005407658659353123 0.0038955762881553967
0002c0 26 3f f0 a9 f4 db 79 bf a9 01 6f 33 d9 2f 6b 3f
       -0.006313281744055909 0.0033187143521617624
0002d0 63 78 49 c9 20 94 45 3f a3 c2 2e 06 1f 24 83 3f
       0.0006585273827786172 0.009346239448718768
0002e0 de 3f 8a a4 25 48 9d bf 3b a0 e0 ab e9 bf 78 bf
       -0.028595531623579855 -0.0060423972882191436
0002f0 0c ed 6e de cb 50 85 3f 08 15 6e 34 0b 99 6a 3f
       0.010408013082147359 0.0032468050807802386
000300 f8 3d 8d ff f9 af 95 3f 9b 4c c5 92 5c d4 85 3f
       0.021179109785689904 0.01065895388516074
000310 c2 72 44 92 b4 d2 6b bf ab eb 53 c9 c4 e8 48 3f
       -0.0033963705810847464 0.0007601700660012553
000320 b2 a9 0e b5 81 c6 90 3f 1a e1 79 81 21 f9 93 bf
       0.016382242847308333 -0.019505046393960425
000330 4d fe e0 dd ad 27 94 bf 7c 96 ab 6c 43 8c 51 bf
       -0.01968261400929654 -0.0010710390512768389
000340 98 bb ed db a8 77 73 bf f1 ef 79 3e 24 81 70 bf
       -0.004752788167805465 -0.004029409006417226
000350 07 83 07 7f ef a1 68 bf 65 1f 3b 4d 66 de 5f 3f
       -0.0030069043789214852 0.001945114044177709
000360 7b b1 3d e6 e2 f8 33 3f 45 f8 50 c1 95 76 75 bf
       0.00030475177322022263 -0.005240044575712648
000370 4c 0f 89 d9 0f 3b 63 bf 1f d4 3e 75 ad d5 a9 3f
       -0.0023474988522894976 0.050458355486093114
000380 8b 90 bc d6 74 ef 91 bf d5 82 e8 0b 14 4c 43 bf
       -0.017515016180496928 -0.0005889032252675794
000390 22 dc fb 1f 73 86 9a bf d3 ce d9 82 1a 72 73 bf
       -0.02590350992883484 -0.004747489508747998
0003a0 e8 9a 2e 8b 51 5a 91 bf f7 d4 b3 66 52 af 7d 3f
       -0.016946100349424592 0.007247278098693181
0003b0 c3 3d 41 f2 fa df 59 bf a9 77 b8 3d 10 cb 70 3f
       -0.0015792799613513076 0.004099906389027832
0003c0 3b c0 78 83 fd 2a 64 bf c1 ee 1c 14 92 ba 93 bf
       -0.002461905616449681 -0.01926639793167229
0003d0 e7 96 90 b3 27 10 7a bf cf a9 55 1c 8f 24 96 bf
       -0.006363062938395925 -0.02162383661690531
0003e0 87 5d 28 7c 81 84 6c 3f 9a 1f 7b 7d 18 f7 77 bf
       0.0034811524394730595 -0.005850883164107668
0003f0 02 41 0d a2 12 d1 5d bf 5b 87 6d ad 7e d9 6f bf
       -0.0018198663676294862 -0.0038878893059725423
000400 e5 b4 66 21 f4 c9 88 3f c0 b0 0e 0e 32 aa 5f bf
       0.012103945988963758 -0.0019326676194664633
000410 2b 3b 9f c1 07 d6 66 3f a0 18 c3 2c 0f d9 93 bf
       0.0027876044741569537 -0.01938270292955535
000420 35 4a b1 9c 72 fd 63 3f bb f4 be b3 33 79 79 bf
       0.002440189220160672 -0.006219102822737794
000430 ae e6 fd 7e 81 d2 14 bf 7b 25 6c 9d 53 2a 95 bf
       -7.943072682605842e-05 -0.02066927574472775
000440 85 16 79 05 17 2b 87 bf 5e f7 fd de 09 a5 17 3f
       -0.011312656263849927 9.01973032778314e-05
000450 a5 a2 17 7e e5 89 88 bf 3a ce ba 74 c1 e0 98 3f
       -0.011981766615421672 0.024294874906173748
000460 4a df ce 89 d8 41 7e bf 2a 9f ea 1a bd 03 4b 3f
       -0.007387014248642585 0.0008244202961877657
000470 11 ee 75 f9 cd df 68 3f 43 f2 79 16 e1 89 75 3f
       0.003036405843600106 0.005258445023738792
000480 fa 38 a0 b2 8a 51 97 3f 08 0f 1b e6 cb 9b 7e 3f
       0.022771994736154412 0.007472797851452169
000490 91 96 ec ea d5 92 4c 3f dc 18 95 92 85 58 90 bf
       0.000871996356953191 -0.015962683746033032
0004a0 85 47 fd e2 c1 f2 75 3f cd b5 03 02 4a 81 a0 3f
       0.005358464593728023 0.03223639750090577
0004b0 4a b8 8e de 4d b2 91 3f 0c e9 a3 44 06 51 89 bf
       0.017281738957244643 -0.012361573190436313
0004c0 d7 f8 73 19 72 c9 9d 3f 9c 87 27 80 df ec 9b 3f
       0.029088766864327233 0.027270786473202344
0004d0 78 7f c6 8d 2b 32 96 3f bd a5 2a 6f 44 f0 91 3f
       0.021675758865625977 0.017518109593458443
0004e0 88 58 27 44 50 b0 81 bf 22 83 6e 67 88 9d 2b 3f
       -0.008637072639356327 0.00021068849647767294
0004f0 40 76 08 f3 c8 8d 79 3f 29 30 c6 76 fd c7 91 3f
       0.006238732298269378 0.01736446416320817
000500 a8 a4 06 87 81 87 93 3f e1 e9 36 ac 6b 14 95 3f
       0.01907160174019809 0.020585710893763823
000510 e1 1e 41 f6 90 b8 6a bf 85 2f a0 1e a7 69 48 bf
       -0.0032618361747472767 -0.0007450166715456818
000520 a7 47 c2 c7 12 29 74 bf 2a 59 9c 42 ce c2 60 bf
       -0.004921983109072692 -0.0020460155982490362
000530 8d 11 54 e3 c7 a5 9c bf a4 69 ca 89 61 9f 63 3f
       -0.027976153612159705 0.002395334724792879
000540 10 34 fa dd 5b e7 98 3f 19 6d 80 3d dd 81 80 3f
       0.024320063994810737 0.008060196341878755
000550 a4 47 55 61 71 96 72 3f eb b2 23 cf fb 47 85 bf
       0.004538004771648039 -0.010391204127210915
000560 88 7e f8 11 44 d1 7c 3f 54 12 09 b5 f5 14 83 bf
       0.007035509013377024 -0.00931732138372713
000570 fb dc d8 1b 9c 15 79 bf d8 43 d6 e4 30 5c 8f bf
       -0.0061241243361600485 -0.015312559112119858
000580 01 e1 68 c0 26 f2 86 bf 80 5b 07 47 fb 92 73 3f
       -0.011204054591062109 0.004778844406664429
000590 d8 af ed b8 cd ff 9c bf ff 3a 60 83 54 29 9c bf
       -0.028319563305032464 -0.02750141193251476
0005a0 71 07 15 6d 19 60 8a 3f ed 7e b8 76 33 9a 91 bf
       0.012878607407973171 -0.017189792748580613
0005b0 51 70 b9 cc f1 17 95 bf d0 bd 31 8d 78 eb 86 3f
       -0.020599153633483806 0.011191312607677611
0005c0 72 18 90 1f 86 ad 55 3f 6b 0c 5d f1 00 c4 71 bf
       0.0013231096074846319 -0.00433731430331639
0005d0 ba 49 9d 24 79 4f 88 3f a4 c4 8c 74 25 f2 87 bf
       0.011870333127863886 -0.011692326182670527
0005e0 e4 33 cc d5 a0 a1 69 bf 47 16 23 b0 66 5f 97 3f
       -0.0031288281737773416 0.022824863911202333
0005f0 f9 df 89 16 70 ee 84 3f 69 62 0d a0 a8 90 78 3f
       0.010220409095595061 0.005997332279399894
000600 d4 4f 64 18 5e 2f 71 3f 9b 08 7f 36 73 07 94 3f
       0.004195563850107182 0.019559669686494457
000610 70 ac d3 51 49 15 94 bf 11 85 96 6d e6 11 92 3f
       -0.01961245119029481 0.017646408499449488
000620 ec 6d 70 ce 4d 0d 82 3f e2 d8 45 4a 15 e1 8d 3f
       0.00881443773510334 0.014589468316199509
000630 93 74 18 5d e7 a4 82 3f f4 fd 8e 6e 90 a6 93 bf
       0.009103591469335625 -0.019190079448660982
000640 c8 ee 90 6a b7 9a 79 bf 97 27 c8 2b 88 88 81 bf
       -0.006251064748592668 -0.00856119521724334
000650 6d 2e 84 09 c1 4c 95 3f f1 1a ae 0f dd 60 6d 3f
       0.02080060597022142 0.003586227188353213
000660 86 5e d5 5b c0 5b 6a 3f f3 6f c6 ec 66 57 79 3f
       0.003217578602441598 0.006186868715669635
000670 dd 17 91 a8 0f 4d 7f bf 6b c8 f7 c4 0c 4a 95 3f
       -0.007641850629687111 0.02079029037663142
000680 d8 98 f4 05 9e 40 92 3f 7e e5 84 04 ca bd 8e 3f
       0.017824620355121862 0.01501043154040604
000690 e4 df 7b 46 ac ef 94 bf 9e 96 0d 24 75 9c 91 bf
       -0.020445529748911798 -0.017198400807862606
0006a0 dd 03 55 25 2e 73 11 bf 0d 67 44 05 42 87 a0 bf
       -6.656617309365406e-05 -0.03228193582817882
0006b0 34 20 8b 10 06 71 8c bf c5 4e 94 54 18 67 78 3f
       -0.013887450580469453 0.005957694092348202
0006c0 b8 a0 c4 a0 f2 4b 82 3f 34 92 c0 de 5f b4 91 3f
       0.00893392136693226 0.01728963658401224
0006d0 e7 e7 77 93 00 6f 61 3f 0b c2 a9 30 2d 7b 8b bf
       0.002128125310034246 -0.013418534324245909
0006e0 36 f7 20 05 d7 83 24 bf 59 e5 0c e2 55 fa 82 bf
       -0.00015651702648427642 -0.00926653953648564
0006f0 a0 1f 8a 71 d5 43 88 bf 40 de 18 4f 31 c4 89 3f
       -0.011848132636501252 0.012581238962510288
000700 c3 24 55 43 88 b7 68 3f 00 24 17 33 d3 11 46 bf
       0.003017202509600554 -0.0006735116241368688
000710 6e 75 ab e7 a9 ad 97 3f 36 fe c6 ad bb 08 85 bf
       0.023123411908149753 -0.01027056335521968
000720 32 9d eb fd 17 4c 86 bf d0 bc eb b3 ca 75 81 3f
       -0.0108873247495028 0.00852545129370555
000730 6f 16 48 6f cb 23 85 3f db d2 ba a1 c2 36 43 3f
       0.010322179158730209 0.0005863619184852358
000740 44 2e e1 ad e6 c6 94 3f af fa 09 6d f4 7c 7c bf
       0.020289997446793842 -0.006955103672793213
000750 22 25 c0 41 db ab 88 bf dd 96 a3 7b 46 79 8f bf
       -0.012046540206955007 -0.015368033073581195
000760 f1 8d 2e 0a 0a 6b 68 3f 04 fc 6c 24 5c d4 91 3f
       0.00298072777646196 0.01741165134739832
000770 8b b2 2f 88 39 61 91 3f c7 f5 fd 11 34 4d a7 bf
       0.0169724454280407 -0.04551089019421855
000780 43 43 8d 17 f9 6a 64 bf 9b d0 65 2c 91 81 5c bf
       -0.0024924149587736435 -0.0017398755749953646
000790 05 80 c2 1d c3 2c 79 bf 25 b8 53 ce 43 18 71 bf
       -0.006146204159591666 -0.004173531405497176
0007a0 51 77 ab 53 5e 05 87 3f 9f fb 2c 3c 02 68 83 bf
       0.011240708282851538 -0.009475724660317484
0007b0 67 9c c9 c7 25 2d 9c 3f c2 dd fd 9c b5 20 80 bf
       0.02751597434908284 -0.007874888280396845
0007c0 87 8c b8 e1 60 fb 84 bf 8c 0e 2f 0c c1 ed 81 3f
       -0.01024509133191588 0.008754261192627476
0007d0 78 5d 6d c3 44 ac 51 3f 1a 43 fc 75 15 23 8e 3f
       0.0010786696927505817 0.014715354598168019
0007e0 ce e8 42 78 75 2d 6a bf ad f3 39 85 d6 57 8c 3f
       -0.0031955046016181937 0.013839412632700243
0007f0 22 f1 bb 33 34 62 78 bf 59 e0 f6 88 af 27 85 3f
       -0.005953029550934271 0.010329600684471684
